HunterPreyProject/Assets/ONNX/Agent Comtroller.onnx (onnx, 78290 bytes, 8 tensors)

network_body._body_endoder.seq_layers.0.weight f4 [128, 6]
0	0xbeaa330f	-0.3324208
1	0xbe8cb8df	-0.27484795
2	0xbe8a6d51	-0.27036527
3	0x3dcaa5c4	0.098948985
4	0x3f908c2a	1.1292775
5	0x3ed2909e	0.4112596
6	0x3f3982ea	0.72465384
7	0x3ee62a4c	0.44954145
8	0xbe8bae48	-0.27281404
9	0x3e8d9cea	0.27658778
10	0x3c046a85	0.008082037
11	0xbec14ce6	-0.3775398
12	0x3e7110bf	0.23541544
13	0xbf8b416b	-1.0879339
14	0x3defb946	0.1170526
15	0xbf259b65	-0.6469024
16	0xbe483cba	-0.19554415
17	0x3c930b67	0.017949773
18	0x3eb4849d	0.35257426
19	0x3de4b281	0.111668594
20	0x3e796b15	0.24357255
21	0x3d221c27	0.03957763
22	0x3e6b6411	0.22987391
23	0x3ea21910	0.31659746
24	0xbe3cbbe8	-0.18431056
25	0x3ed6a3e0	0.41921902
26	0xbf06505e	-0.5246638
27	0x3ea9eda0	0.33189106
28	0xbe1c02ff	-0.15235518
29	0xbf4f0036	-0.80859697
30	0xbf4893d7	-0.78350586
31	0xbf06b24d	-0.52615815
32	0x3f09d1f7	0.53836006
33	0xbe5c45c6	-0.21510991
34	0x3df4f6fb	0.1196117
35	0x3ed23bcb	0.41061243
36	0x3ea67a62	0.32515246
37	0xbece6f0d	-0.403191
38	0x3e8d9a02	0.2765656
39	0x3e0ab135	0.13544162
40	0xbd2efb24	-0.042719975
41	0x3f0dc637	0.55380577
42	0xbe8d7318	-0.27626872
43	0x3f36c37c	0.71392035
44	0xbdcaec87	-0.09908395
45	0xbd4d5ce7	-0.050137427
46	0xbd77cf09	-0.06050018
47	0x3edb4d65	0.42832485
48	0xbda174dd	-0.07883618
49	0xbe143b3d	-0.14475723
50	0xbf73ce46	-0.95236623
51	0xbe382dd1	-0.17986228
52	0xbecb90b1	-0.39758828
53	0xbeb4a7a1	-0.3528414
54	0x3def850c	0.116952986
55	0xbea3c4a8	-0.31985974
56	0xbe1fc41d	-0.15602155
57	0x3e9ee398	0.31033015
58	0xbe1779c6	-0.14792547
59	0xbd6dfdd1	-0.058103386
60	0xbf4d24b6	-0.8013414
61	0x3eca85c7	0.3955519
62	0x3e7d7eab	0.24755351
63	0x3db16eee	0.08663736
64	0x3e4bc715	0.19900163
65	0x3f2bcaea	0.671065
66	0x3edd4b9d	0.4322175
67	0xbeaf63d7	-0.3425586
68	0x3f0b9ab8	0.5453296
69	0x3f985b6e	1.1902902
70	0x3efa5bd0	0.48898172
71	0xbe30064a	-0.17189899
72	0xbd1f5534	-0.038899615
73	0x3e5e81e2	0.21729234
74	0x3eb59a8a	0.35469466
75	0x3e5a8e65	0.21343382
76	0xbbb63134	-0.0055600647
77	0xbf2d9640	-0.6780739
78	0x3e93397d	0.28754798
79	0x3f37b842	0.7176553
80	0xbd4d62c9	-0.050143037
81	0x3dc31469	0.09525377
82	0xbe22f196	-0.1591247
83	0xbe5fe885	-0.21866043
84	0xbf471213	-0.77761954
85	0x3e8df9c4	0.2772962
86	0xbf0f4092	-0.559579
87	0xbea65e92	-0.32494026
88	0x3f024711	0.5088969
89	0x3e0817da	0.13290349
90	0x3e834407	0.25637838
91	0xbd6e97e0	-0.058250308
92	0x3eda9a32	0.42695767
93	0xbf536903	-0.8258211
94	0x3e1e3c59	0.15452708
95	0xbd259456	-0.040424667
96	0xbec4adef	-0.3841395
97	0x3e9ef343	0.3104497
98	0xbe96ab90	-0.29427767
99	0x3f5fab25	0.8737052
100	0xbe3f024e	-0.18653223
101	0xbe0f17c6	-0.13973913
102	0x3c279aa4	0.01022974
103	0x3ee17976	0.4403798
104	0xbf24026b	-0.6406619
105	0xbf2fe087	-0.68701977
106	0x3d09e090	0.033661425
107	0xbd733af1	-0.059382383
108	0x3e57b720	0.2106595
109	0xbe7f85d7	-0.249534
110	0xbf00d5aa	-0.50326025
111	0x3f3b000f	0.73046964
112	0xbef02e84	-0.4691049
113	0x3f39ce76	0.7258066
114	0x3bede332	0.00725975
115	0x3e37e990	0.17960191
116	0x3dac0f44	0.08401349
117	0x3e10c81f	0.1413884
118	0xbd3b5296	-0.045733057
119	0xbe674516	-0.22584948
120	0x3eda6fc7	0.42663404
121	0xbe93f023	-0.28894147
122	0xbf3a3127	-0.7273125
123	0xbe9e0920	-0.30866337
124	0xbe707ef9	-0.23485936
125	0xbf156778	-0.58361006
126	0xbf308eaa	-0.6896769
127	0xbec309ee	-0.38093513
128	0x3e8482b9	0.25880983
129	0xbf082cd3	-0.53193396
130	0x3f294662	0.6612302
131	0xbed2ad83	-0.41148004
132	0xbf892718	-1.0715055
133	0xbdcb76f8	-0.09934801
134	0x3f6af0d1	0.91773707
135	0x3d1eeb0c	0.038798377
136	0x3de386ec	0.11109719
137	0xbe8c5148	-0.27405763
138	0x3da0c264	0.07849577
139	0xbe7e8702	-0.24856189
140	0x3f5887e4	0.8458235
141	0x3e8ed5fb	0.2789763
142	0x3d3bfa79	0.045893166
143	0xbec870ee	-0.3914866
144	0xbf3c539a	-0.73565066
145	0x3d81bbca	0.06334646
146	0x3dc33c60	0.09533
147	0xbc7a0fc6	-0.01526255
148	0xbf1e9493	-0.61945456
149	0x3e154201	0.1457596
150	0xbed5ed89	-0.41782787
151	0xbf067765	-0.5252593
152	0xbe11593f	-0.14194201
153	0xbe9035f7	-0.28166172
154	0xbef42832	-0.47686917
155	0xbe967bde	-0.29391378
156	0x3e5298ef	0.20566152
157	0x3d8a7139	0.06759877
158	0xbf15e55d	-0.58553106
159	0x3f252843	0.6451456
160	0x3f0fd667	0.56186527
161	0xbee27b61	-0.44234756
162	0xbe8c0f09	-0.2735522
163	0xbea89ced	-0.32932225
164	0xbeb5ff1d	-0.35546198
165	0x3e621292	0.22077397
166	0x3f70981b	0.93982095
167	0xbecbd0fc	-0.3980788
168	0x3f79f6c2	0.9764215
169	0x3c37d93c	0.011221226
170	0x3ecb0239	0.39650133
171	0xbee2313c	-0.44178188
172	0x3f46b1a3	0.776148
173	0x3e1d06d0	0.1533463
174	0xbf21e39a	-0.6323792
175	0x3e8ee663	0.27910146
176	0x3ac3a401	0.0014926196
177	0xbf3f98c9	-0.74842507
178	0x3e85e4c0	0.26151085
179	0x3e85a126	0.2609951
180	0x3e6020a1	0.21887447
181	0xbf0639a7	-0.5243172
182	0xbef2ad72	-0.47397953
183	0x3b532127	0.0032215805
184	0xbec27644	-0.37980855
185	0xbeeb9f31	-0.4601989
186	0xbf253b4f	-0.6454362
187	0xbb8fe0ec	-0.0043908264
188	0x3e7b69d2	0.24552086
189	0x3ef7d5e8	0.48405385
190	0xbe3485ac	-0.17629117
191	0xbe67a702	-0.22622302
192	0x3f05c8a7	0.52259296
193	0xbecb5bc9	-0.39718464
194	0xbf098835	-0.5372346
195	0x3df5bd5d	0.11999009
196	0x3e102801	0.1407776
197	0x3ca93ee3	0.02065987
198	0x3dc88af3	0.097921275
199	0x3dea44d7	0.114389114
200	0x3efc801b	0.49316487
201	0x3eb143bc	0.3462199
202	0x3f1e161b	0.6175248
203	0x3da46a6e	0.08028112
204	0x3c0fa112	0.0087664295
205	0xbe53b823	-0.20675711
206	0x3f080059	0.5312553
207	0x3f042dda	0.51632464
208	0xbe0bb359	-0.13642634
209	0xbd182441	-0.03714395
210	0x3db3a067	0.08770829
211	0x3f076700	0.5289154
212	0x3f21d04a	0.6320845
213	0xbf2b616f	-0.66945547
214	0xbf509b03	-0.8148653
215	0x3ec45979	0.38349512
216	0xbe907df6	-0.282211
217	0xbe0753d1	-0.13215567
218	0x3f0a8157	0.54103607
219	0x3f8164dd	1.0108906
220	0xbea170ea	-0.3153146
221	0xbed7554f	-0.42057273
222	0x3f5de6cb	0.8668029
223	0x3f3c22ac	0.73490405
224	0x3ef9e80c	0.4880985
225	0x3f7ca756	0.98692834
226	0x3e54db94	0.20786887
227	0xbe34ed01	-0.17668535
228	0x3f67e338	0.90581083
229	0x3e37976b	0.17928855
230	0xbe70e8d2	-0.23526314
231	0xbdd09567	-0.10184746
232	0xbf3075ec	-0.68929935
233	0x3e2077f1	0.15670754
234	0xbec59cfd	-0.38596335
235	0xbee61871	-0.44940522
236	0x3ee6bc97	0.45065758
237	0xbea2cb0f	-0.31795546
238	0xbed99f84	-0.42504513
239	0xbecc9713	-0.3995901
240	0xbec356fd	-0.38152304
241	0x3e00892f	0.12552331
242	0xbf28ecd3	-0.65986365
243	0x3c86cf5b	0.016456297
244	0x3ec06436	0.37576455
245	0xbed1eddc	-0.41001785
246	0x3f06a115	0.5258954
247	0xbf091c5e	-0.5355891
248	0xbe9fc3fa	-0.31204206
249	0x3efab7f0	0.48968458
250	0xbe094d16	-0.13408312
251	0xbeb45a3d	-0.35225096
252	0xbf42731a	-0.7595688
253	0x3ea5a266	0.32350463
254	0x3ea9ea06	0.33186358
255	0x3c4d40bb	0.01252764

network_body._body_endoder.seq_layers.0.bias f4 [128]
0	0x3ce6e686	0.028186094
1	0x3ca21c34	0.019788839
2	0xbcc8a1fc	-0.024491303
3	0xbcad7403	-0.021173483
4	0x3ae755b1	0.0017649439
5	0x3c5d19d4	0.013494927
6	0xbd26cfec	-0.040725634
7	0x3d05f2aa	0.032702126
8	0xbcaa48ff	-0.02078676
9	0xbb921789	-0.004458372
10	0x3c60aca9	0.01371304
11	0xbbf3d8b0	-0.0074416026
12	0x3d2a876c	0.041633055
13	0x3b524337	0.003208352
14	0xbba863c5	-0.0051388466
15	0x3d3955b5	0.045247752
16	0x3cfcee26	0.030875277
17	0xbc92d780	-0.017925024
18	0xbba58e93	-0.0050523966
19	0x3c9b6519	0.018969106
20	0x3bb8d497	0.005640577
21	0x3d61fd1b	0.05517302
22	0x3d09cc29	0.033641968
23	0x3cae70b5	0.021293977
24	0xbc1c9601	-0.009557248
25	0x3bb685ec	0.005570164
26	0x3c995cc7	0.018720997
27	0x3c8fb2fb	0.0175414
28	0x3ce864db	0.028368404
29	0xbc2cf489	-0.010556349
30	0xbbec8236	-0.007217671
31	0x3d782618	0.060583204
32	0xbc10ed3a	-0.008845622
33	0x3c50ed52	0.012751894
34	0x3bf0f39e	0.00735326
35	0xbc2cc6d2	-0.010545449
36	0x3d5a36cb	0.05327491
37	0x3c7d01d9	0.015442335
38	0x3ca50220	0.020142615
39	0x3c9191f7	0.017769797
40	0xbc40a1ae	-0.011757297
41	0xbd12c4d7	-0.035832252
42	0x3d6d21a6	0.057893418
43	0x3b8b2ec9	0.0042475206
44	0x3bdc1e30	0.006717466
45	0x3c548c50	0.012972906
46	0x3ba8e9e5	0.0051548355
47	0x3b66d99e	0.0035224925
48	0x3bc31b9c	0.005954219
49	0xbb822ffa	-0.0039730044
50	0xbc7c6756	-0.015405497
51	0x3c1f60aa	0.009727636
52	0xbcdf1238	-0.027230367
53	0xbc20b155	-0.009807904
54	0x3c455f1a	0.0120466
55	0x3c8e4df6	0.017371159
56	0xbc4575fc	-0.012052055
57	0xbcafb69e	-0.021449383
58	0xbd1b1399	-0.037860487
59	0xbc541043	-0.01294333
60	0x3ccc6f3e	0.024955388
61	0x3c989be2	0.018629018
62	0x3cacc206	0.021088611
63	0xbc37a386	-0.011208421
64	0x3d3e40d0	0.04644853
65	0xbc5b6993	-0.01339187
66	0x3d48758d	0.04894023
67	0x3c6e63d6	0.01455017
68	0x3cf5e57c	0.030016653
69	0x3cf6e823	0.030139988
70	0x3cde25d0	0.02711764
71	0xbc6c76b3	-0.014432597
72	0x3d01acc1	0.03165889
73	0xbceb4f59	-0.02872436
74	0x3ccd8ceb	0.025091609
75	0xbd1d2138	-0.038361758
76	0x3ca965f3	0.020678496
77	0x3cd3eda2	0.025870148
78	0x3b5b773a	0.0033487813
79	0xbc524475	-0.012833704
80	0xbb5e8307	-0.003395261
81	0xbbdd7750	-0.006758608
82	0x3bd62c6f	0.0065360586
83	0x3d11cfa1	0.0355984
84	0x3c66e0fe	0.014091728
85	0x3c511f2b	0.012763779
86	0x3ceb2ab7	0.028706891
87	0x3d9a39a9	0.07530529
88	0x3bb781cb	0.0056001893
89	0x3b6f0a1e	0.0036474536
90	0x3d53f7de	0.051750056
91	0x3d1994cb	0.037495416
92	0x3c549349	0.012974569
93	0xbc9d0dc7	-0.019171609
94	0x3d2e154d	0.042500783
95	0x3d0beaf6	0.034159623
96	0x3c58a873	0.013223755
97	0xbbb5358b	-0.0055300645
98	0x3bfad009	0.0076541943
99	0x3d425c70	0.047451437
100	0x3cb0ad5d	0.021567041
101	0xbc1626da	-0.009164536
102	0xbcbcb73e	-0.023036595
103	0xbcad4176	-0.021149378
104	0x3b99e34e	0.0046962863
105	0x3c97c7a6	0.018527817
106	0xbbaab314	-0.005209336
107	0x3bac42fc	0.0052570086
108	0x3bc92bcf	0.0061392556
109	0x3bb819f4	0.005618328
110	0xbc920744	-0.01782573
111	0x3a560a9a	0.0008165032
112	0x3c91cf09	0.017798917
113	0xbc0b20df	-0.008491724
114	0x3d444d9c	0.047925577
115	0xbc7b3d7f	-0.015334486
116	0x3ce0ab81	0.02742553
117	0x3bf7ec23	0.0075659915
118	0xba6db51d	-0.00090678205
119	0xbc582388	-0.013192065
120	0x39b52bc1	0.0003455561
121	0x3cc04d17	0.02347426
122	0xbb0a78b8	-0.0021129083
123	0xbcdaf45e	-0.026727851
124	0x3aae5130	0.0013299342
125	0x3b2bd394	0.002621864
126	0x3cca9d59	0.024733232
127	0x3c02f2e8	0.007992484

network_body._body_endoder.seq_layers.2.weight f4 [128, 128]
0	0x3d74ebfd	0.05979537
1	0x3b99ffab	0.0046996675
2	0xbcf0806e	-0.029358115
3	0x3d334cf1	0.04377455
4	0x3d69ffa1	0.057128552
5	0xbd04ce70	-0.032423437
6	0x3e8638f3	0.26215324
7	0x3deafca7	0.11473971
8	0x3e390987	0.1807004
9	0xbe5e7637	-0.21724783
10	0x3d3ebfce	0.046569638
11	0x3d9264f5	0.07148162
12	0x3da30d0a	0.079614714
13	0x3c1ecb5e	0.009692041
14	0xbe2db175	-0.16962226
15	0x3d76f9e8	0.060296923
16	0x3c167b9b	0.009184743
17	0xbc43de06	-0.01195479
18	0x3c640c64	0.01391897
19	0xbba427c5	-0.0050096237
20	0x3dcbde77	0.09954541
21	0x3c51bb55	0.012801011
22	0x3d76e763	0.06027926
23	0xbe05c10a	-0.1306192
24	0xbe0cd4b5	-0.13753016
25	0xbd5221ef	-0.051301893
26	0xbe066581	-0.13124658
27	0x3d185858	0.037193626
28	0x3cfdbfd2	0.030975256
29	0x3ddd20af	0.107972495
30	0xbea0cdb0	-0.31406927
31	0xbe1ef17c	-0.15521806
32	0x3e0286b4	0.12746698
33	0xbe664e66	-0.22490844
34	0x3d82cc9d	0.06386683
35	0x3d1ff1e0	0.03904903
36	0x3d61907f	0.055069443
37	0x3c80dfc9	0.01573171
38	0x3cc6e553	0.024279272
39	0x3d42ef51	0.04759151
40	0xbd72c691	-0.0592714
41	0x3e28d551	0.16487624
42	0x3cc5bfe5	0.024139354
43	0xbdfa3f0e	-0.12219058
44	0xbda3573b	-0.07975622
45	0x3c23c4f4	0.009995688
46	0x3dc5c3af	0.09656464
47	0xbce3d3fc	-0.027811043
48	0x3dc63dcc	0.096797556
49	0xbd29972a	-0.041403927
50	0x3d0bc1dd	0.03412043
51	0x3cb4a15f	0.022049604
52	0x3e251889	0.1612264
53	0x3e291211	0.16510798
54	0x3cae5fb8	0.021285877
55	0xbc785ff8	-0.0151595995
56	0x3d5cfa3b	0.053949576
57	0x3dc0c567	0.094126515
58	0xbc1d659c	-0.009606745
59	0x3d6861f5	0.056734044
60	0xbdc734b8	-0.09726852
61	0x3d84b0a5	0.06479005
62	0xbd2c7620	-0.04210484
63	0xbd4f358d	-0.05058818
64	0x3cfca5cc	0.030840777
65	0xbce9f6e1	-0.028560104
66	0x3e0b5453	0.13606386
67	0x3ddac788	0.10682589
68	0x3df59180	0.119906425
69	0x3ce75ccc	0.028242491
70	0x3e100388	0.14063847
71	0x3c4be5be	0.0124449115
72	0xbcff48d1	-0.031162651
73	0xbd83f183	-0.06442549
74	0x3bfd7bd6	0.0077357097
75	0xbd95c8eb	-0.07313713
76	0xbe4be457	-0.19911323
77	0xbc8a2d77	-0.016867382
78	0x3c4499ba	0.011999542
79	0x3d61f433	0.055164527
80	0x3c5030fc	0.012706991
81	0x3e26be77	0.16283594
82	0x3d8036c8	0.06260449
83	0x3d1298aa	0.035790123
84	0x3e308436	0.17237934
85	0x3c33d474	0.010975946
86	0xbe00a0e1	-0.1256137
87	0x3d0e2e09	0.03471187
88	0xbdab8b58	-0.08376187
89	0xbda73881	-0.08165074
90	0x3e26e032	0.16296461
91	0x3db6f0d4	0.08932653
92	0x3dd3f885	0.10350136
93	0x3dccb8ef	0.09996211
94	0xbd853376	-0.06503956
95	0x3d493ad1	0.049128357
96	0xbc0d35d4	-0.008618791
97	0x3dbeaf3c	0.09310767
98	0x3d73ce90	0.059523165
99	0x3da32c99	0.07967491
100	0x3bef858e	0.007309622
101	0x3db8628d	0.09003172
102	0x3d87681d	0.06611655
103	0xbd8e749b	-0.069558345
104	0xbd8ef908	-0.06981093
105	0xbd6e7246	-0.05821445
106	0xbd84ef92	-0.06491007
107	0xbd4cfb56	-0.05004438
108	0x3b92baa6	0.0044778166
109	0x3dc13445	0.09433798
110	0xbde08317	-0.109625034
111	0x3d241213	0.0400563
112	0x3e156516	0.14589342
113	0xbdb3e26e	-0.087834224
114	0x3db3738c	0.08762273
115	0x3c68aca8	0.014201321
116	0xbe039cf6	-0.12852845
117	0xbd4bde08	-0.049772292
118	0xbd3c1afd	-0.045924176
119	0xbdaa9a5c	-0.08330223
120	0x3ddeb413	0.1087419
121	0x3cc43fa6	0.023956131
122	0x3e275134	0.1633957
123	0xbdd15ec1	-0.10223151
124	0xbcb80d39	-0.022467243
125	0xbdc28d25	-0.094995774
126	0xbd903755	-0.07041804
127	0x3dc44c34	0.09584847
128	0xbdb50ccd	-0.08840332
129	0x3d5b44b4	0.053532317
130	0xbcb87558	-0.022516891
131	0xbbdb0231	-0.006683611
132	0x3e00b28e	0.12568113
133	0xbe1b43c1	-0.15162565
134	0xbd8c9650	-0.06864607
135	0xbc9618e5	-0.018322418
136	0x3bc38d3e	0.005967765
137	0xbdc11a58	-0.09428853
138	0x3dc9c53e	0.09852074
139	0x3de77db6	0.11303274
140	0xbb7b05da	-0.0038303048
141	0xbe0cf8fb	-0.13766854
142	0xbe3156f1	-0.17318322
143	0xbd53e077	-0.05172774
144	0x3cf11bce	0.029432204
145	0x3d64a5a8	0.055822045
146	0xbd9df370	-0.07712448
147	0xbdaefcdc	-0.08544323
148	0xbdabb42c	-0.083839744
149	0xbd9b5f0f	-0.0758649
150	0x3c8d4c9d	0.017248446
151	0xbce997fd	-0.028514856
152	0xbdd0d552	-0.101969376
153	0xbc33f1dc	-0.010982957
154	0x3d660b3e	0.056163065
155	0xbb4accf9	-0.0030944927
156	0x3e01b4a7	0.1266657
157	0x3e31d5ce	0.17366716
158	0xbbd8358b	-0.0065981797
159	0x3ded27ee	0.115798816
160	0xbc9b8bd3	-0.018987572
161	0xbcd4b345	-0.025964389
162	0x3d147c45	0.036251325
163	0x3d1ca489	0.03824285
164	0x3df38ef3	0.118925
165	0xbaa0d94e	-0.0012271793
166	0xbd8431e6	-0.0645483
167	0xbd18aa07	-0.037271526
168	0x3dad7f0b	0.08471497
169	0x3d7b02a1	0.061281804
170	0xbde413e4	-0.11136606
171	0x3d266ca2	0.040630944
172	0xbd4c3066	-0.049850844
173	0xbd121ac7	-0.035670068
174	0xbd8ddac7	-0.06926494
175	0x3e10ed3c	0.14152998
176	0x3c36d256	0.011158546
177	0xbd7b08df	-0.061287757
178	0x3cf576d1	0.029963883
179	0xbc1135b0	-0.008862898
180	0x39dd6cb8	0.00042233407
181	0x3dbb0e89	0.09133632
182	0x3d8890ab	0.06668218
183	0xbdd2b27d	-0.1028795
184	0xbd651ab4	-0.05593367
185	0x3dc55cc8	0.09636837
186	0x3e01cc25	0.12675531
187	0xbd92bd1d	-0.07164977
188	0xbd1098cd	-0.035301972
189	0x3d11736e	0.035510473
190	0x3d47d751	0.048789326
191	0x3dd34678	0.10316175
192	0xbc9e36c4	-0.019313224
193	0x3dff0317	0.12451761
194	0xbc5e4345	-0.013565843
195	0x3ca70b7d	0.02039122
196	0x3d1b8696	0.037970148
197	0x3cc11473	0.023569321
198	0x3c15d715	0.009145518
199	0x3d380560	0.044927
200	0x3dfbf685	0.12302879
201	0x3e154fa8	0.14581168
202	0x3cb920cc	0.022598647
203	0xbd5566ec	-0.052100107
204	0x3dc15ec3	0.094419025
205	0xbd9843ed	-0.07434831
206	0x3d2445ea	0.040105738
207	0x3dae59ba	0.08513208
208	0xbddaeda9	-0.10689861
209	0xbd72dddf	-0.059293624
210	0x3db83673	0.0899476
211	0xbdb45a00	-0.08806229
212	0xbe0905e0	-0.13381147
213	0x3cdd35cb	0.02700319
214	0xbc4162cc	-0.01180334
215	0x3d77b33c	0.060473666
216	0x3d676018	0.056488127
217	0xbcaa56d7	-0.020793362
218	0x3e0ecc2d	0.13945074
219	0x3d8f1650	0.06986678
220	0x3d174dae	0.036939315
221	0x3e02e4b8	0.12782562
222	0xbc8e9352	-0.017404232
223	0xbe07eb58	-0.1327337
224	0x3e1739f1	0.14768197
225	0x3e60e6b5	0.21963008
226	0xbc90fd23	-0.01769883
227	0x3df41b59	0.11919279
228	0x3d61508f	0.055008467
229	0x3d4eb310	0.050463736
230	0x3dea17db	0.11430331
231	0xbd26bbd2	-0.040706463
232	0x3c85cb9e	0.016332444
233	0x3d2aa98c	0.0416656
234	0x3b9a81d2	0.004715183
235	0x3d538ebc	0.051649794
236	0xbb6bbc0d	-0.0035970241
237	0x3d67ed4e	0.056622796
238	0x3dbd0ef7	0.0923137
239	0x3e18c8e6	0.14920387
240	0xbd2269d2	-0.0396517
241	0x3e027b1a	0.12742272
242	0x3c07f955	0.0082991915
243	0xbd751b13	-0.059840273
244	0xbe1c4fc2	-0.152648
245	0xbd81db09	-0.06340606
246	0xbd9c9db4	-0.07647267
247	0xba4ff3db	-0.00079327606
248	0x3e01be1d	0.12670179
249	0xbce3ebab	-0.027822336
250	0xbda02773	-0.07820024
251	0x3da500e3	0.0805681
252	0x3d970700	0.07374382
253	0xbd190924	-0.037362233
254	0xbc88eec2	-0.016715411
255	0x3a87d5eb	0.0010363435

network_body._body_endoder.seq_layers.2.bias f4 [128]
0	0x3cae29eb	0.021260222
1	0xbc9b19fc	-0.018933289
2	0x3c46e471	0.012139426
3	0x3d18825c	0.037233695
4	0x3cc5646d	0.024095738
5	0xb9e12f00	-0.00042950362
6	0xbc5bb802	-0.01341057
7	0x3d2bf775	0.04198404
8	0xbc934a2f	-0.01797971
9	0x3bd90d6d	0.006623915
10	0x3cc7c7cf	0.024387268
11	0x3ccec627	0.02524097
12	0x3bb2d3ef	0.0054573934
13	0xbc926a46	-0.01787294
14	0xbcff4916	-0.03116278
15	0xbb5cb5f2	-0.0033677784
16	0xbc5fc27e	-0.01365721
17	0x3bec0f19	0.007203948
18	0x3cb5f5d4	0.022211947
19	0xbb28154f	-0.0025647467
20	0x3cfa0715	0.030520955
21	0x3c6c200b	0.0144119365
22	0x3c0c28fb	0.008554692
23	0x3d41e167	0.0473341
24	0xbbaf384d	-0.0053472877
25	0xbd0b3abb	-0.033991557
26	0xbb9d31ce	-0.004797197
27	0xbbc75d6c	-0.006084135
28	0xbc80510f	-0.015663652
29	0xbc162a16	-0.0091653075
30	0x3b8f2de4	0.0043694843
31	0x3a810ba5	0.0009845389
32	0x3cc20ff8	0.023689255
33	0x3c3a5fc6	0.011375373
34	0x3d4651bd	0.048417795
35	0xbc61cac7	-0.013781256
36	0x3ba0b829	0.004904766
37	0x3cffa1c2	0.031205062
38	0x3c325803	0.010885241
39	0x3d0f4d73	0.03498597
40	0x3cd427e3	0.025897926
41	0x3d2da0d3	0.042389702
42	0x3b9d39ac	0.004798135
43	0xba10e63a	-0.00055274705
44	0x3c90e750	0.017688423
45	0xbc3a502d	-0.011371654
46	0xbb9a0e7a	-0.004701433
47	0xbc93cfd9	-0.018043445
48	0xbc13cee0	-0.009021491
49	0xbcb1b4c3	-0.02169264
50	0x3bda5976	0.0066634966
51	0x3d2abdc9	0.0416849
52	0xbc6506f6	-0.01397871
53	0x3d3c6397	0.045993414
54	0xbcf2cea7	-0.029639555
55	0xbc77aee5	-0.015117382
56	0x3c42cc5b	0.011889542
57	0x3c99d120	0.018776476
58	0x3c8ceca2	0.017202679
59	0x3b8da884	0.004323067
60	0x3bd7f290	0.006590195
61	0x3c41f56a	0.011838296
62	0x3c7aabca	0.015299747
63	0x3bde41cf	0.0067827473
64	0xbc9c9e00	-0.019118309
65	0x3d33cf3f	0.043898817
66	0xbc677067	-0.01412592
67	0x3d25c776	0.040473424
68	0x3cfc317b	0.030785313
69	0xbc9376f0	-0.01800105
70	0x3c503255	0.012707313
71	0xbd2ebf91	-0.04266316
72	0x3c422ecc	0.011851978
73	0x3d1a34d7	0.03764805
74	0x3d2cc4b4	0.04217978
75	0x3a03d0bf	0.0005028359
76	0xbd017bcc	-0.031612203
77	0xbc1d247e	-0.00959122
78	0x3c4e05f0	0.012574658
79	0x3ce8d96c	0.028423987
80	0x3cb7fc9d	0.022459323
81	0x3c006228	0.007835902
82	0x3d01308a	0.03154043
83	0x3ca9153b	0.020640006
84	0xbbb7f18a	-0.0056135105
85	0x3d0f94d3	0.03505404
86	0xbbd5e7c9	-0.006527875
87	0x3cc4502f	0.023964016
88	0x3bfd4970	0.0077297017
89	0xbbb8b932	-0.0056373114
90	0x3b973808	0.0046148337
91	0x3c4b288c	0.012399804
92	0x3d250ead	0.0402972
93	0x3c2ffa8a	0.0107408855
94	0x3d37acd6	0.044842564
95	0x3cf4100f	0.029792814
96	0xbba5a7ed	-0.0050554187
97	0x3c3e7338	0.01162415
98	0x3c34c9f2	0.011034476
99	0x3c2511e6	0.010075068
100	0x3d1cb058	0.038254112
101	0xbbc45d69	-0.0059925807
102	0x3c128f4a	0.008945296
103	0xb99cd332	-0.0002991199
104	0xbcb65e8a	-0.022261877
105	0x3cbe750d	0.023249174
106	0xbcc28322	-0.02374417
107	0x3c80bfbc	0.015716426
108	0xbb84e882	-0.0040560374
109	0x3cb3b736	0.021937948
110	0x3cac9e5e	0.02107161
111	0x3cd87829	0.026424484
112	0x3c9ced98	0.019156262
113	0xbc726a48	-0.014795847
114	0xbc33bde0	-0.010970563
115	0xbc34a08a	-0.011024604
116	0xbb7a344d	-0.0038178146
117	0xbc3a6ab7	-0.011377982
118	0x3cc3a3cf	0.023881821
119	0x3d0554bc	0.032551512
120	0x3caab052	0.02083603
121	0x3d241d79	0.04006717
122	0x3c634c46	0.0138731655
123	0x3d27bcd1	0.040951554
124	0x3c1272db	0.0089385165
125	0xbc6b646f	-0.014367207
126	0xbcb23e23	-0.021758145
127	0x3b0115ff	0.0019696949

action_model._continuous_distribution.log_sigma f4 [1, 2]
0	0xbd0935a7	-0.033498432
1	0xbcb68c1f	-0.022283612

action_model._continuous_distribution.mu.weight f4 [2, 128]
0	0xbc6de983	-0.014521006
1	0xbcaa5f7c	-0.020797484
2	0x3d4d3a04	0.050104156
3	0xbbd95666	-0.006632614
4	0xbd620139	-0.055176947
5	0xbcdb1212	-0.026742015
6	0x3c890ddd	0.016730243
7	0x3d267ace	0.04064446
8	0x3cac1b39	0.021009075
9	0x3b7ef162	0.00389012
10	0x3d62a1ef	0.055330213
11	0x3ac6331a	0.0015121431
12	0x3b90dd80	0.004420936
13	0xbb8ea5b4	-0.0043532494
14	0xb8e1a9fc	-0.00010760498
15	0x3b8324fe	0.0040022125
16	0x3d3cf8e4	0.046135798
17	0xbba2f9bb	-0.004973618
18	0xbcce2abe	-0.025166865
19	0xbc863c9a	-0.016386319
20	0x3cef8a5c	0.02924078
21	0xbc086737	-0.00832539
22	0x3b6b1a5a	0.003587386
23	0x3c3ec190	0.011642829
24	0x3cfe97ce	0.031078245
25	0x3a767ae2	0.0009402466
26	0xbbb1cec3	-0.0054262592
27	0x3cd6cca7	0.026220633
28	0xbb300bbc	-0.0026862463
29	0x3cff65f8	0.031176552
30	0xbc955e50	-0.018233448
31	0x3c5f2ccf	0.013621523
32	0x3bfd860e	0.007736928
33	0xbc7167f5	-0.014734258
34	0xbd5fc11c	-0.054627523
35	0x3d1768da	0.03696523
36	0x3bb3fde8	0.0054929145
37	0x3c14276e	0.009042604
38	0xbc527b19	-0.012846732
39	0xbcb90f48	-0.022590294
40	0xbca5617b	-0.020188084
41	0x3b016396	0.0019743196
42	0xbca486fd	-0.020083899
43	0x3d86e3b7	0.06586402
44	0x3cae9f01	0.021316053
45	0xbd18419c	-0.037171945
46	0xbcb595ef	-0.02216622
47	0xba230c64	-0.0006219803
48	0x3ce73dc8	0.028227702
49	0x3c12867f	0.008943199
50	0x3d5a740c	0.053333327
51	0xbd22f59d	-0.039785016
52	0xbba6f731	-0.0050953855
53	0x3c068461	0.0082102725
54	0xbb92cd43	-0.0044800355
55	0x3c4df124	0.012569699
56	0x3c877b55	0.016538301
57	0xbd06f640	-0.032949686
58	0xbcb497aa	-0.022044975
59	0x3c93c911	0.018040212
60	0x3c14baf6	0.009077778
61	0x3bc66a5e	0.0060551604
62	0x3d0c2318	0.034213156
63	0xba8e1fb2	-0.0010843186
64	0x3d444c9c	0.047924623
65	0xbce310f5	-0.027718047
66	0x3c7fb110	0.01560618
67	0xbc602fdb	-0.013683285
68	0x3ce52e87	0.027976288
69	0x3cd4c865	0.025974462
70	0xbcbd0819	-0.02307515
71	0xbb9d9bea	-0.004809846
72	0xbca745c8	-0.020419016
73	0x3cf33d8b	0.029692432
74	0x3d725dd0	0.059171498
75	0x3c3763b5	0.011193206
76	0x3bdaa7d6	0.0066728396
77	0x3c9065de	0.017626699
78	0xbd382021	-0.044952516
79	0x3c09b7d6	0.008405646
80	0x3ca70dbf	0.020392297
81	0x3c6d2851	0.014474944
82	0xbd353637	-0.044241156
83	0xbcff6e8f	-0.031180648
84	0x3d0cd81c	0.034385785
85	0xbcbe1ff8	-0.023208603
86	0x3bcc73b2	0.006239378
87	0xbc86530d	-0.016397024
88	0x3cbb2f6b	0.02284976
89	0xbcc5940f	-0.024118451
90	0xbb5c949d	-0.0033657916
91	0x3cfdca4a	0.030980248
92	0xbb97b085	-0.004629197
93	0x3d68952e	0.056782894
94	0xbaf1b494	-0.0018440657
95	0x3d1d5757	0.038413372
96	0x3cf276b0	0.02959761
97	0x3ad6271a	0.0016338557
98	0xbc57ed11	-0.01317908
99	0x3c11488e	0.008867396
100	0xbab2f5aa	-0.0013653536
101	0x3c04aa58	0.008097254
102	0x3cddc81f	0.027072964
103	0xbb8daacb	-0.0043233386
104	0x3bfd1531	0.0077234735
105	0xbd4f6d65	-0.050641436
106	0xbb93dadd	-0.0045121745
107	0xbcc540f2	-0.02407882
108	0x3cb778ee	0.022396531
109	0x3d17ff1b	0.037108522
110	0xbccc4f02	-0.024940018
111	0x3ae0ecdc	0.0017160433
112	0xbcccdb6b	-0.02500697
113	0x3bd798bb	0.006579486
114	0x3c12ec98	0.008967541
115	0xbc7fa341	-0.015602888
116	0xbd1f8119	-0.038941476
117	0x3bdbf1f1	0.0067121913
118	0x3cc90aa7	0.024541212
119	0x3d0575c9	0.03258303
120	0x3c1310f1	0.008976207
121	0xbc83ad91	-0.016073974
122	0xbcdb76c5	-0.026790032
123	0x3cbcefcc	0.023063563
124	0x3cce37a4	0.025173016
125	0xbc0d5a51	-0.00862749
126	0x3c57827d	0.013153669
127	0xbd1ed451	-0.0387767
128	0x3c2ff2ce	0.0107390415
129	0xbcd8f231	-0.026482673
130	0xbacdc00f	-0.0015697497
131	0x3d0cf712	0.034415312
132	0xba44c7e7	-0.00075065944
133	0xbc4e54b1	-0.012593434
134	0xbc99cae8	-0.018773511
135	0xbd16be66	-0.03680267
136	0xbcd2be84	-0.02572561
137	0x3cdfcfd8	0.027320787
138	0x3cd0d97c	0.02549433
139	0xbd563706	-0.05229857
140	0x3d06bbdd	0.032894004
141	0xbc24b205	-0.010052209
142	0xbd344cfe	-0.044018738
143	0x3cbdac07	0.023153318
144	0xbb2ea64a	-0.002664941
145	0xbd83f110	-0.064424634
146	0xbc1b5b26	-0.009482181
147	0xbb65754a	-0.0035012537
148	0x3d36b87c	0.04460953
149	0x3c97bcc4	0.018522628
150	0x3b5f9d34	0.00341208
151	0xbd0cb66f	-0.03435367
152	0xbc478f86	-0.012180215
153	0xbcabc51d	-0.020968014
154	0x3c36565c	0.011128988
155	0x3d1011a7	0.035173085
156	0xbd30878a	-0.04309801
157	0x3bf7e5e3	0.0075652464
158	0xbba49bde	-0.0050234636
159	0xbd59e527	-0.053197052
160	0x3ccaf2c6	0.024773967
161	0x3bf5b2a4	0.0074981023
162	0x3c19f705	0.009397273
163	0xbbf8ac88	-0.0075889267
164	0xbc09ffe4	-0.0084228255
165	0x3cc0ec26	0.023550104
166	0x3b77f28e	0.0037833783
167	0x3d17d8a3	0.037071835
168	0x3d1a3a75	0.037653405
169	0x3c8845b7	0.016634805
170	0x3ad9612a	0.0016584743
171	0xbc68e168	-0.014213897
172	0xbd25b9ec	-0.040460512
173	0xbd3198fb	-0.043358784
174	0xbbbcf10c	-0.0057660397
175	0xbbdd3c10	-0.006751545
176	0xbcf548b1	-0.029941889
177	0xbcce7b11	-0.025205167
178	0xbd2075ed	-0.039174963
179	0x3b63c334	0.0034753801
180	0xbc9ff295	-0.019524852
181	0xbdb7e685	-0.08979515
182	0xbb5137f3	-0.0031924217
183	0xbbf8c614	-0.007591972
184	0xbc9a8c80	-0.018865824
185	0xbbf00c62	-0.007325695
186	0x3bad50f0	0.0052891895
187	0xbc6c9252	-0.014439182
188	0x3cbbb3bc	0.022912852
189	0x3cd66139	0.026169406
190	0xbd8350f2	-0.064119235
191	0x3ccde242	0.025132302
192	0xbd55bbba	-0.052180983
193	0x3caadcdb	0.020857265
194	0xbc4d2838	-0.012521796
195	0xbd52b092	-0.05143792
196	0x3d362c3e	0.044475786
197	0xbc6992b7	-0.014256171
198	0xbd087309	-0.03331283
199	0xbc8141af	-0.01577839
200	0x3b8f5a7d	0.0043748007
201	0x3cad8a58	0.021184132
202	0x3d18eb31	0.03733367
203	0x3c8ba207	0.017045034
204	0xbc3da5a8	-0.01157514
205	0xbd6cab94	-0.057780817
206	0xb95b7a74	-0.00020931085
207	0xbd5b21d6	-0.053499065
208	0xbd62a611	-0.055334155
209	0x3d0d0ecb	0.034437936
210	0xbc0687cd	-0.008211088
211	0xbb2441cc	-0.0025063632
212	0x3b8fa98c	0.0043842252
213	0x3c8709e1	0.016484203
214	0xbc23391d	-0.009962347
215	0x3bc181b3	0.005905354
216	0x3c8ec48e	0.017427709
217	0xbc8f2920	-0.017475665
218	0x3cafebc6	0.02147473
219	0xb9facaef	-0.00047834913
220	0xbd90c4cc	-0.07068786
221	0xbc178958	-0.009249054
222	0x3d40eddb	0.047101837
223	0x3cf7bf5b	0.030242613
224	0x3bfe6961	0.007764027
225	0xbb5843d8	-0.0032999422
226	0xbcaf9954	-0.021435417
227	0x3c9fcbe7	0.019506408
228	0x3c8b91dd	0.017037326
229	0xbd0f553e	-0.034993403
230	0xbcf78879	-0.030216442
231	0x3c59404a	0.013259957
232	0xbc6234ac	-0.013806503
233	0xbb9df887	-0.0048208865
234	0xbd467156	-0.04844793
235	0xbd41b460	-0.04729116
236	0xbcbc3d0b	-0.022978326
237	0xbb96b42e	-0.004599116
238	0x3d002427	0.031284478
239	0xbd1e579c	-0.03865777
240	0x3c1246d3	0.008928019
241	0xbb97a813	-0.0046281903
242	0x39e52cf1	0.00043711768
243	0xbc3be719	-0.011468672
244	0xbd0267cf	-0.03183728
245	0xbb71e6d3	-0.0036911264
246	0x3d141fe3	0.036163222
247	0xbca7338e	-0.020410325
248	0x3cc7d655	0.024394194
249	0x3d03c887	0.03217366
250	0xbc585638	-0.01320415
251	0x3d100322	0.035159238
252	0x3cb6ddb1	0.022322508
253	0xbca1f007	-0.019767774
254	0xbc908615	-0.01764206
255	0x3ba40c83	0.0050063743

action_model._continuous_distribution.mu.bias f4 [2]
0	0xbc7832dd	-0.0151488455
1	0x3c9073da	0.017633367

action_model._discrete_distribution.branches.0.weight f4 [1, 128]
0	0xbc00e1b1	-0.007866309
1	0xbb1359ec	-0.0022484018
2	0x3c335354	0.01094516
3	0xbb887461	-0.004164264
4	0x3c12be95	0.008956571
5	0x3b4fbb12	0.0031697196
6	0xbbef018d	-0.007293886
7	0x3bdac49a	0.0066762688
8	0xbb13286f	-0.002245452
9	0xbb85e9f6	-0.004086728
10	0x3bb15b87	0.0054125222
11	0x3b9296ff	0.0044735665
12	0xbc427138	-0.011867814
13	0x3c2d4799	0.010576152
14	0x3c8a3654	0.016871609
15	0x38684880	5.538063e-05
16	0x3bfa3e02	0.0076367864
17	0x3aa2e5c1	0.0012428091
18	0x3b666533	0.0035155534
19	0x3c48231f	0.012215405
20	0x3b3630f7	0.0027800181
21	0x3c68ccd0	0.014208987
22	0x3c39aa04	0.011332039
23	0x3a865c8d	0.0010250971
24	0x3b5fb493	0.003413473
25	0x3cb88087	0.022522224
26	0xbb18d2db	-0.002331904
27	0xbc6142b8	-0.013748817
28	0x3ccda9ed	0.025105441
29	0xbc1260f8	-0.008934252
30	0xbbe83bdb	-0.0070872135
31	0xbc1ff83a	-0.009763772
32	0xbad0fe25	-0.0015944882
33	0xbaa95879	-0.0012920044
34	0xb9bc3d7f	-0.00035903972
35	0x39dc7955	0.0004205207
36	0xbc760aa0	-0.015017182
37	0x39ea868a	0.00044732197
38	0x3bd8943a	0.006609467
39	0x3ca082e8	0.019593671
40	0x3c44b5be	0.012006221
41	0x3c05a5db	0.008157219
42	0x3bc0a212	0.0058786953
43	0x3a8a013f	0.0010528936
44	0xbbefa685	-0.007313552
45	0xbc4ca727	-0.012491024
46	0x3bcacd63	0.006189035
47	0xbb9126b1	-0.004429661
48	0x3c32a298	0.010903023
49	0x3b0b2267	0.0021230222
50	0xbbdc59fd	-0.0067245946
51	0xbbad9f6b	-0.005298545
52	0x3adf7efd	0.0017051395
53	0xbc343cae	-0.011000795
54	0xbce144cb	-0.027498623
55	0x3c49255b	0.012276973
56	0x3be0fe72	0.0068662697
57	0x3b868f33	0.004106426
58	0x3bee7d62	0.0072781304
59	0x3b3dc43f	0.0028956083
60	0x3b9758cf	0.004618741
61	0x3b9e7d34	0.0048367027
62	0xba8d74c8	-0.001079225
63	0x3c31b476	0.010846248
64	0x3b818bb8	0.0039534234
65	0x3ba6327b	0.0050719357
66	0x3c5986ea	0.013276795
67	0xbaec010f	-0.0018005687
68	0xbb6803e3	-0.0035402707
69	0x3bb91835	0.0056486377
70	0xbbde14aa	-0.0067773657
71	0xbbe79c65	-0.007068204
72	0x3b9347e6	0.004494655
73	0x3c88ef5a	0.016715694
74	0xbba64651	-0.0050743003
75	0xbb2e0e35	-0.002655876
76	0x3ae90520	0.0017778017
77	0x3c0ca1bd	0.008583483
78	0x3c26e8e0	0.010187358
79	0xbca6f18d	-0.020378852
80	0x3ac821e8	0.0015268894
81	0x3ca6453d	0.020296687
82	0xbad4a215	-0.0016222621
83	0x3bb32c81	0.0054679518
84	0x3c3d0617	0.011537096
85	0x3b1fc9d2	0.002438177
86	0xbb6b00b8	-0.0035858583
87	0xba2b68b9	-0.0006538737
88	0xbc69daeb	-0.0142733855
89	0x3c19ce33	0.009387541
90	0xbba12391	-0.00491757
91	0x3c13144d	0.008977008
92	0xbb80bff4	-0.0039291326
93	0xbbc4e3b0	-0.006008588
94	0xbc11810c	-0.008880865
95	0xba925a7e	-0.0011165885
96	0x3c1c0b0f	0.009524121
97	0xbae43f43	-0.0017413873
98	0x3b9cec0c	0.004788881
99	0xbc79dd68	-0.015250541
100	0x3ab2b01f	0.001363281
101	0xbb0d925f	-0.0021602137
102	0x3b113296	0.0022155396
103	0xbb466d7f	-0.0030277667
104	0xbc1d4fac	-0.009601515
105	0xbbf5deb8	-0.007503357
106	0x3afa0c83	0.0019077215
107	0x3c938dc8	0.018011943
108	0xbb3cb9db	-0.0028797302
109	0xbc46dc63	-0.012137505
110	0x3b33532f	0.0027362814
111	0x3bf1aeed	0.007375589
112	0x3c4a81d7	0.012360058
113	0x3c422715	0.011850138
114	0xbc3a7282	-0.01137984
115	0x3aa5be1a	0.0012645156
116	0xbc4c2c9b	-0.012461807
117	0x3c4314aa	0.011906782
118	0x3ca54d8b	0.020178577
119	0x3b434123	0.0029793463
120	0x3c1b01e7	0.009460903
121	0xbbaf8f04	-0.005357625
122	0x3cb62566	0.02223463
123	0x3ca8384a	0.020534653
124	0xbb9d0743	-0.0047921254
125	0xbb97a0ee	-0.0046273386
126	0x3b580ab7	0.003296537
127	0x3c2a31ef	0.010387882
