HunterPreyProject/Assets/ONNX/SideBrain.onnx (onnx, 77770 bytes, 6 tensors)

network_body._body_endoder.seq_layers.0.weight f4 [128, 6]
0.18127836 0.3279659 -0.04817169 -0.3065317 -0.2636207 0.53478706 0.3160903 0.4064835
0.5299081 -0.14007536 0.13285446 -0.17904785 0.25502148 0.45426282 -0.19109096 0.006637746
-0.1729798 0.5732057 0.23525654 -0.050139703 0.05466483 0.6260482 0.03500639 0.43996838
-0.52164024 -0.24726897 0.24853829 0.35885468 0.25939474 -0.039351378 -0.43061283 -0.030957375
0.05771867 0.033675633 0.48155233 0.3488172 0.146351 0.35674858 -0.13176659 -0.256241
-0.07614697 -0.0594013 -0.4498034 1.1343285 0.13944183 -0.07350287 -0.16448258 0.39307708
-0.45953688 0.17911467 -0.87172836 0.35691726 0.014734733 -0.24761806 -0.4907595 0.15862426
-0.13720536 0.26810172 -0.38896796 -0.25487983 -0.21227394 0.6004028 -0.23387696 0.028147776
-0.32012385 -0.551271 -0.17975245 0.39852753 0.6915686 -0.45505446 0.12671883 -0.24865535
0.44831505 -0.15803258 0.20863578 0.8084954 0.32687005 -0.86259407 -0.62144375 -0.55423117
0.4351859 0.16063794 0.3310526 -0.5796125 0.31839463 0.4450473 -0.32321092 0.10317737
0.19259141 0.6644761 -0.15881856 0.28103977 0.18264684 -0.06681263 -0.22668819 0.10312244
-0.398959 -0.06807255 0.16277613 0.30517146 -0.4763785 -0.69941556 0.1532789 -0.850559
0.9420465 -0.49536127 -0.55486465 -0.35416326 0.27651942 -0.7470709 0.020057824 -0.6605357
0.20285404 -0.10731044 -0.42039883 -0.26494294 -0.011473059 -0.25231743 0.34211293 0.34318507
-0.13416252 0.11801826 -0.09291636 -0.20360549 -0.060967997 0.30295426 0.38589853 -0.017844329
0.34447947 -0.52934515 0.09115984 -0.17268234 0.096382655 0.4469632 -0.059567843 -1.1081172
-0.42618397 0.07414639 -0.38761908 -0.52016896 0.13837199 -0.08251012 -0.16267471 0.20153345
0.4389198 0.17864159 -0.78371644 0.36472508 -0.14920767 0.30338377 0.065494575 -0.060013033
-0.3757902 -0.15662372 -0.10169529 -0.13732427 0.41068202 -0.20710145 -0.11577234 -0.34750888
0.37588876 -0.2589162 0.10530478 -0.19584128 -0.12817684 -0.13106734 0.16144414 0.3995549
-0.8442421 -0.33527607 -0.2822375 -0.32094684 0.24590783 0.12333381 -0.29347336 0.13780712
-0.22606298 -0.16996494 -0.06353787 0.54143995 0.24116458 0.45295876 -0.23379384 -0.24425942
-0.6829637 -0.3851995 -0.214536 -0.35659236 -0.36948526 -0.53881025 -0.12793936 -0.39058977
0.16851556 -0.27337566 -0.37229526 0.1923208 0.27453622 -0.07398084 0.05259681 -0.68063813
0.0021030067 -0.040523913 -0.6563802 -0.14496438 -0.012481729 -0.63119465 0.60408074 0.11133338
0.39485064 0.3228609 -0.13423617 0.18536717 -0.24528284 -0.17171076 0.5181289 -0.123839155
0.25000343 0.016667666 -0.254215 0.58203536 0.33852258 0.22342578 0.39755693 -0.73617417
-0.15244518 0.120221466 -0.49780616 0.3408881 0.06414657 -0.057168964 -0.14010482 -0.17324398
0.24990061 0.21636695 -0.059176855 0.076104395 -0.123436436 -0.6372289 0.039116528 -0.01938048
0.8444009 0.05578376 0.44525677 -0.27059025 0.8556118 0.5627728 0.34132254 -0.66552263
-0.44322205 1.1874287 -0.6375294 -0.19919068 -0.23350266 -0.08095518 0.18689248 -0.430383
00000000: 09a1 393e 25eb a73e ae4f 45bd b9f1 9cbe
00000010: 4bf9 86be cee7 083f 96d6 a13e 9b1e d03e
00000020: 0fa8 073f ea6f 0fbe 000b 083e 5258 37be
00000030: 2d92 823e 2395 e83e 59ad 43be 7381 d93b
00000040: 9e21 31be 9cbd 123f 17e7 703e 4a5f 4dbd
00000050: 3be8 5f3d b244 203f dc62 0f3d 8943 e13e
00000060: 378a 05bf 1434 7dbe d280 7e3e cdbb b73e
00000070: 63cf 843e e92e 21bd 4979 dcbe 529a fdbc
00000080: 6a6a 6c3d 76ef 093d 078e f63e 2b98 b23e
00000090: 09dd 153e c0a7 b63e d2ed 06be 0532 83be
000000a0: f1f2 9bbd c74e 73bd a24c e6be ad31 913f
000000b0: d7c9 0e3e ac88 96bd 1f6e 28be 6641 c93e
000000c0: 6b48 ebbe d669 373e 9729 5fbf dcbd b63e
000000d0: f369 713c 978f 7dbe d444 fbbe 666e 223e
000000e0: 907f 0cbe a144 893e cf26 c7be 9c7f 82be
000000f0: 575e 59be ffb3 193f 717d 6fbe 2a96 e63c
00000100: 46e7 a3be 1920 0dbf 0711 38be cd0b cc3e
00000110: a40a 313f e6fc e8be 95c2 013e 829f 7ebe
00000120: 8d89 e53e 4bd3 21be 9ea4 553e 8ef9 4e3f
00000130: 835b a73e f7d2 5cbf f016 1fbf 18e2 0dbf
00000140: b0d0 de3e 467e 243e ba7f a93e 7c61 14bf
00000150: 9f04 a33e 3ddd e33e e77b a5be a84e d33d
00000160: af36 453e 1b1b 2a3f 55a1 22be 72e4 8f3e
00000170: c607 3b3e 0fd5 88bd f320 68be dc31 d33d
00000180: 5b44 ccbe 9f69 8bbd c9ae 263e 6f3f 9c3e
00000190: e2e7 f3be e60c 33bf 25f5 1c3e 3cbe 59bf
000001a0: f629 713f fe9f fdbe 9c0b 0ebf e354 b5be
000001b0: f493 8d3e 0a40 3fbf 4e50 a43c de18 29bf
000001c0: f8b8 4f3e 93c5 dbbd 843e d7be 9aa6 87be
000001d0: 7ff9 3bbc c02f 81be 6d29 af3e f4b5 af3e
000001e0: e661 09be 8fb3 f13d ef4a bebd f57d 50be
000001f0: 94b9 79bd d21c 9b3e 7e94 c53e 452e 92bc
00000200: 9d5f b03e 2a83 07bf 03b2 ba3d a4d3 30be
00000210: 4564 c53d 5cd8 e43e 69fd 73bd c9d6 8dbf
00000220: c934 dabe 10da 973d 0276 c6be cb29 05bf
00000230: 63b1 0d3e 11fb a8bd 3394 26be c95e 4e3e
00000240: 19ba e03e d2ed 363e a4a1 48bf 3fbd ba3e
00000250: e5c9 18be 1e55 9b3e 0522 863d 3ad0 75bd
00000260: 9367 c0be f861 20be 9f45 d0bd bc9e 0cbe
00000270: ea44 d23e 6712 54be 0c1a edbd afec b1be
00000280: 7e74 c03e aa90 84be 08aa d73d 9e8a 48be
00000290: ca40 03be 8436 06be 9d51 253e 7692 cc3e
000002a0: 4020 58bf 4ea9 abbe 6f81 90be 2553 a4be
000002b0: 43cf 7b3e 7096 fc3d 2442 96be 4f1d 0d3e
000002c0: 0e7d 67be 4a0b 2ebe 2520 82bd cf9b 0a3f
000002d0: d9f3 763e 36ea e73e a767 6fbe 241f 7abe
000002e0: b6d6 2ebf de38 c5be 53af 5bbe 4693 b6be
000002f0: 2c2d bdbe 78ef 09bf 8902 03be 62fb c7be
00000300: 588f 2c3e e5f7 8bbe 7c9d bebe beef 443e
00000310: 0390 8c3e 4483 97bd c16f 573d 4d3e 2ebf
00000320: 99d2 093b 67fc 25bd 8808 28bf 8b71 14be
00000330: 2a80 4cbc f995 21bf 09a5 1a3f c102 e43d
00000340: dd29 ca3e 064e a53e 3575 09be e4d0 3d3e
00000350: 6d2b 7bbe f2d4 2fbe 18a4 043f 629f fdbd
00000360: 7300 803e a18a 883c 7828 82be 4500 153f
00000370: d552 ad3e bac9 643e 958c cb3e e975 3cbf
00000380: 971a 1cbe ac36 f63d 73e0 febe e388 ae3e
00000390: 475f 833d 012a 6abd a377 0fbe df66 31be
000003a0: f2e5 7f3e 4c8f 5d3e 6e63 72bd 9fdc 9b3d
000003b0: 3ecc fcbd 6f21 23bf a738 203d d0c3 9ebc
000003c0: a82a 583f 837d 643d b2f8 e33e ce8a 8abe
000003d0: 6009 5b3f e111 103f d4c1 ae3e b15f 2abf
000003e0: 00ee e2be aafd 973f 2035 23bf a4f8 4bbe
000003f0: 521b 6fbe d4cb a5bd be60 3f3e 295b dcbe

network_body._body_endoder.seq_layers.0.bias f4 [128]
0.027192904 0.025848716 -0.029952282 0.023803798 0.023454549 0.028831303 0.029013332 0.02987694
0.028086262 0.009145411 0.030786116 0.009707864 0.02337468 0.0012531088 -0.004313034 0.0066809636
0.026485687 -0.018878993 0.01810848 0.03118885 0.014024216 0.029052982 0.021497505 0.028752541
0.023171825 0.016272752 0.032142993 0.02423257 -0.0024234701 0.02973878 0.033655543 0.008995143
0.01803004 -0.017849265 -0.024233295 0.025304716 0.024306903 -0.018332029 0.027873872 0.003990689
0.023101112 0.012869603 0.029290238 0.022452647 -0.015524373 0.016395684 0.019543437 0.02655569
0.030052945 -0.015818441 -0.007102903 0.0040790397 -0.012379216 0.028023956 -0.0072042737 -0.0014451941
0.026201513 0.022948192 0.0088294055 0.021938311 0.028373843 0.02772395 0.0044320445 -0.0045721564
-0.011854788 0.021945491 0.023860957 -0.0045912126 0.031946767 0.020025508 -0.029420048 -0.021059869
0.028946644 0.026119167 0.026870307 -0.005796912 0.018995421 -0.013336421 0.015178734 -0.020051561
-0.011556115 0.006066499 0.020368146 0.014194462 0.022539793 0.021300955 0.01941989 0.020826397
-0.0027692378 0.009964599 -0.025439514 0.01752842 0.02462467 -0.011837966 0.019926535 -0.00050522055
0.013701266 0.024989178 0.016036447 0.020156804 0.0026448404 0.021474333 0.0036286681 0.006950025
0.02751571 -0.0028267626 0.023141894 -0.024207085 0.01877538 0.02016011 0.017808976 0.03735599
0.00681442 -0.01998812 0.02050536 -0.010738956 0.00936379 0.023863498 0.010572935 0.025573757
0.021345928 0.012347895 0.031352255 -0.016373795 0.007886988 0.02480433 0.024048334 0.00043514764
00000000: a7c3 de3c b0c0 d33c 7d5e f5bc 2f00 c33c
00000010: c123 c03c a02f ec3c 5ead ed3c 7cc0 f43c
00000020: 2915 e63c a2d6 153c 2a33 fc3c bc0d 1f3c
00000030: 427c bf3c 5b3f a43a 5a54 8dbb fceb da3b
00000040: 83f8 d83c 1ea8 9abc 3c58 943c c27f ff3c
00000050: d3c5 653c 8500 ee3c 891b b03c 738a eb3c
00000060: d7d2 bd3c 6f4e 853c 5fa8 033d 6283 c63c
00000070: 15d3 1ebb be9e f33c 65da 093d 5d60 133c
00000080: bcb3 933c 9f38 92bc e784 c6bc d64b cf3c
00000090: 451f c73c 0d2d 96bc bf57 e43c 53c4 823b
000000a0: 8b3e bd3c 07db 523c 15f2 ef3c 9dee b73c
000000b0: f159 7ebc 3e50 863c 8f19 a03c 528b d93c
000000c0: 9831 f63c ad95 81bc 78bf e8bb 77a9 853b
000000d0: 32d2 4abc 7f92 e53c d411 ecbb ab6c bdba
000000e0: 8ea4 d63c d9fd bb3c 36a9 103c f9b7 b33c
000000f0: 4370 e83c 561d e33c af3a 913b 07d2 95bb
00000100: 963a 42bc 08c7 b33c 0e78 c33c e271 96bb
00000110: 9dda 023d 890c a43c 5002 f1bc bf85 acbc
00000120: 8321 ed3c ddf7 d53c 1e1f dc3c 06f4 bdbb
00000130: 499c 9b3c 0181 5abc 3ab0 783c 2c43 a4bc
00000140: dc55 3dbc 7bc9 c63b 19db a63c e48f 683c
00000150: 5fa5 b83c 577f ae3c 7616 9f3c 1f9c aa3c
00000160: 1a7c 35bb 8f42 233c 8766 d0bc c397 8f3c
00000170: adb9 c93c 07f4 41bc f93c a33c c770 04ba
00000180: 467b 603c 1bb6 cc3c de5e 833c e21f a53c
00000190: 0f55 2d3b f1ea af3c f3ce 6d3b 09bd e33b
000001a0: a068 e13c 3541 39bb 1294 bd3c f04d c6bc
000001b0: d3ce 993c d126 a53c 21e4 913c 9802 193d
000001c0: 804b df3b 20be a3bc dbfa a73c 72f2 2fbc
000001d0: 956a 193c 627d c33c 1b3a 2d3c 0e80 d13c
000001e0: a8dd ae3c d34e 4a3c 396b 003d 5622 86bc
000001f0: 6d38 013c 7332 cb3c 0301 c53c 8724 e439

network_body._body_endoder.seq_layers.2.weight f4 [128, 128]
-0.090508565 -0.0539326 -0.06488343 0.038299922 -0.08110239 -0.036397357 0.07993406 -0.020021906
0.0224121 0.06197967 -0.037619382 0.19203123 -0.114146255 -0.15440826 -0.099969186 0.19885899
0.082157575 0.14619392 0.09113673 0.06060767 0.012474848 0.12063326 -0.029947499 0.030900942
-0.13353297 -0.093958996 0.16547231 0.11914679 0.07605881 0.040917046 0.03403381 -0.04784124
0.08110052 0.07741057 -0.1176835 0.07698109 -0.054823373 -0.14051925 0.042071305 0.0079841595
-0.035789073 -0.036569998 0.06764899 0.014423205 -0.08953606 0.0008889991 -0.07276323 0.03726067
0.10133598 -0.016551478 0.0072248336 0.03376369 -0.055080656 -0.057042502 0.05558887 -0.02875393
-0.10782589 0.004091179 0.035739638 0.03213573 0.15230583 0.12567483 -0.041492634 -0.10804465
-0.029263144 -0.075238615 -0.101649575 -0.08944533 0.081167586 -0.0494648 -0.18407904 -0.111952744
-0.023792544 -0.005409146 0.06756991 -0.050229724 0.062076095 -0.16410874 0.045719672 0.0005278408
0.19962369 -0.17148796 -0.017340034 0.02497536 -0.034119077 0.02649121 -0.04425356 0.04724096
-0.056071967 0.043246508 0.050838582 0.15411532 0.02232705 0.07491309 0.073390864 0.036476877
0.24481572 -0.010513492 -0.08386269 0.1919002 0.04661476 0.010873954 -0.13392642 -0.05200658
0.045347247 -0.00093276514 -0.13287064 -0.01096234 0.11351263 -0.008131586 0.06633221 0.09378027
-0.037160974 0.09000739 0.11651888 0.081412315 0.08277651 0.024305087 0.03373269 0.035077304
0.03193775 -0.0032565766 0.047594022 -0.008456821 -0.041307468 -0.15464823 0.08281277 0.041873094
-0.005888437 -0.11213503 0.06650576 0.03428531 0.0040271305 -0.076886185 0.0466056 0.06597985
0.061323244 0.046431012 -0.04230709 -0.02153749 -0.03636659 -0.08033984 -0.018747604 0.03958007
0.12466358 0.052522894 -0.10529117 -0.09487536 -0.046582643 -0.0161575 0.10360232 -0.11000981
-0.06794859 -0.059654906 -0.018922674 0.08289888 0.009507242 -0.014027154 0.045092467 -0.09434999
0.14772919 0.011343206 -0.066187896 0.028340206 0.00012088101 -0.019759696 0.15564826 0.0060624424
-0.06764436 0.07854988 -0.05993236 0.061550204 0.033768013 0.10443242 -0.14333028 -0.07067765
0.0021112969 0.13212804 0.038134303 0.026092961 0.061188344 -0.0057647447 -0.05160225 -0.10480983
-0.12904738 -0.034237925 0.10258951 0.03891767 -0.065112494 -0.04191683 -0.07868967 0.123462744
-0.15455297 -0.0743834 0.04653538 -0.13426057 0.12625027 0.045525096 -0.026761841 -0.021962479
-0.21371329 0.20550603 -0.05075667 -0.056001045 -0.06959145 -0.06145104 0.064039715 -0.010953772
0.14244254 -0.03960743 -0.09818836 0.036437046 0.076489285 -0.0264119 -0.09739872 -0.03379325
-0.019177504 0.033140343 0.03590062 0.11569272 0.030234016 -0.0094556855 -0.102555744 0.120178826
0.0086817965 -0.11631266 0.064439155 -0.0067818514 -0.002553468 -0.10736335 -0.023912178 -0.061017774
0.05356153 -0.086494446 0.040326055 -0.0053111184 0.029336639 0.07081989 0.066974804 0.017008856
-0.062055614 0.06425873 0.07698243 0.0055595366 -0.035530314 0.026629506 0.08265146 -0.025991656
0.020843143 0.0071461396 0.07535196 0.057281487 0.12637764 0.10124066 -0.052297577 -0.039575253
00000000: 8e5c b9bd 6ee8 5cbd 9be1 84bd 61e0 1c3d
00000010: 0319 a6bd 6515 15bd 78b4 a33d fb04 a4bc
00000020: 9599 b73c 65de 7d3d c816 1abd d6a3 443e
00000030: 83c5 e9bd 331d 1ebe a5bc ccbd b1a1 4b3e
00000040: 3b42 a83d dcb3 153e e5a5 ba3d c03f 783d
00000050: 4e63 4c3c 920e f73d 7554 f5bc f923 fd3c
00000060: debc 08be 936d c0bd 9371 293e 3b03 f43d
00000070: b9c4 9b3d a298 273d 0967 0b3d 2df5 43bd
00000080: 0818 a63d 6f89 9e3d 0c04 f1bd 43a8 9d3d
00000090: 798e 60bd 47e4 0fbe f652 2c3d fecf 023c
000000a0: 9097 12bd 6cca 15bd 8e8b 8a3d 4e4f 6c3c
000000b0: af5e b7bd b80b 693a e304 95bd a59e 183d
000000c0: 3d89 cf3d f796 87bc 4cbe ec3b cc4b 0a3d
000000d0: 419c 61bd 66a5 69bd 28b1 633d 5d8d ebbc
000000e0: d2d3 dcbd 4c0f 863b ba63 123d c1a0 033d
000000f0: 0ff6 1b3e e7b0 003e 2ef4 29bd 8346 ddbd
00000100: 43b9 efbc b416 9abd a72d d0bd 1d2f b7bd
00000110: 313b a63d 9a9b 4abd 377f 3cbe 7b47 e5bd
00000120: 95e8 c2bc 353f b1bb 1862 8a3d afbd 4dbd
00000130: 8143 7e3d 1f0c 28be 8d44 3b3d cc5e 0a3a
00000140: 276a 4c3e 8a9a 2fbe b00c 8ebc 2099 cc3c
00000150: 72c0 0bbd 1804 d93c 3943 35bd bd7f 413d
00000160: b8ab 65bd 4023 313d 1e3c 503d 68d0 1d3e
00000170: 38e7 b63c 096c 993d f34d 963d c768 153d
00000180: f9b0 7a3e c840 2cbc 34c0 abbd 7c81 443e
00000190: 1eef 3e3d ab28 323c 0224 09be da04 55bd
000001a0: 09be 393d cf84 74ba 3e0f 08be 639b 33bc
000001b0: 4f79 e83d 583a 05bc 2fd9 873d df0f c03d
000001c0: 1b36 18bd cb55 b83d 73a1 ee3d 80bb a63d
000001d0: bb86 a93d 761b c73c 4a2b 0a3d 38ad 0f3d
000001e0: 28d1 023d 4a6c 55bb f3f1 423d 7a8e 0abc
000001f0: 0532 29bd 1b5c 1ebe be99 a93d 1f83 2b3d
00000200: caf3 c0bb 0da7 e5bd 2c34 883d c16e 0c3d
00000210: 05f6 833b 8176 9dbd 83e5 3e3d 7220 873d
00000220: 152e 7b3d 722e 3e3d 334a 2dbd 646f b0bc
00000230: 22f5 14bd 3789 a4bd 9394 99bc b61e 223d
00000240: 9e4f ff3d 3f22 573d e6a2 d7bd 034e c2bd
00000250: 71cd 3ebd bc5c 84bc 742d d43d d34c e1bd
00000260: a128 8bbd b458 74bd b903 9bbc e3c6 a93d
00000270: 43c4 1b3c 26d2 65bc e1b2 383d 913a c1bd
00000280: 5246 173e dbd8 393c 858d 87bd b829 e83c
00000290: 8081 fd38 16df a1bc 4262 1f3e 74a7 c63b
000002a0: 2089 8abd c2de a03d a27b 75bd 111c 7c3d
000002b0: 5450 0a3d aae0 d53d 2cc5 12be 72bf 90bd
000002c0: af5d 0a3b 934c 073e b732 1c3d e8c0 d53c
000002d0: a1a0 7a3d 2fe6 bcbb e25c 53bd 89a6 d6bd
000002e0: ff24 04be 113d 0cbd 731a d23d 2268 1f3d
000002f0: b359 85bd fbb0 2bbd 0d28 a1bd 09da fc3d
00000300: 2243 1ebe 5356 98bd e29b 3e3d 9a7b 09be
00000310: c047 013e 8678 3a3d a63b dbbc a8ea b3bc
00000320: a8d7 5abe 2c70 523e 3ae6 4fbd 5a61 65bd
00000330: f685 8ebd 16b4 7bbd 4127 833d 7377 33bc
00000340: 75dc 113e 673b 22bd fb16 c9bd 033f 153d
00000350: 6aa6 9c3d c55d d8bc fb78 c7bd ca6a 0abd
00000360: 241a 9dbc 2bbe 073d 870c 133d 4ef0 ec3d
00000370: 54ad f73c 05ec 1abc bf08 d2bd 5120 f63d
00000380: 183e 0e3c 5535 eebd adf8 833d 4b3a debb
00000390: 1658 27bb 51e1 dbbd 79e3 c3bc c6ed 79bd
000003a0: 5663 5b3d 0024 b1bd ef2c 253d e408 aebb
000003b0: 6453 f03c 050a 913d 162a 893d 2856 8b3c
000003c0: 072e 7ebd 159a 833d f7a8 9d3d c62c b63b
000003d0: 3c88 11bd 1f26 da3c 2b45 a93d 74ec d4bc
000003e0: 3dbf aa3c 2a2a ea3b 2152 9a3d fe9f 6a3d
000003f0: 2469 013e 4357 cf3d fc35 56bd a919 22bd

network_body._body_endoder.seq_layers.2.bias f4 [128]
0.02968015 -0.023250012 0.029595768 0.025012463 -0.013609363 0.015941443 0.021037634 0.024432808
0.029105635 0.0032390805 0.027664192 0.016716905 -0.011212223 0.017172405 0.019722207 0.0060261386
0.011399538 0.021499695 0.022905493 0.025672136 0.016651288 0.009898272 0.012754356 0.0176361
0.0229598 0.016831528 0.021150094 0.027796328 0.017698916 0.018447759 0.021698477 -0.0025999814
0.027836662 0.02879135 0.02797678 0.010792508 0.0046630474 0.027270935 -0.006964455 0.014480206
-0.0059831897 0.015542856 0.032017957 -0.0068554636 0.027268564 0.018310023 4.5003384e-05 -0.032375384
0.022511069 0.024753006 -0.007840282 -0.017687216 0.005544846 -0.003826181 0.013727808 0.024204032
0.019455032 0.014081264 0.022450909 0.017713677 0.024339037 0.024545243 0.028708044 0.025044238
0.029485583 0.019870516 -0.014858862 0.02348433 0.011936414 0.02950589 0.03166488 0.008086807
0.025081387 -0.0037633243 0.010579968 -0.013901499 0.006731202 -0.025593285 0.0014172042 -0.0042268704
-0.018956514 0.023629945 0.020663409 0.0043681483 -0.021913756 -0.0047890604 0.02198081 0.008200522
-0.023442067 0.0028610097 0.029385256 0.015843812 0.011330957 0.028099492 0.025256414 0.005175432
0.019008404 0.028751256 0.002564128 -0.01045535 0.03200961 0.005331025 -0.0024382924 0.02494202
-0.00988925 0.015945787 0.028960977 -0.017886134 0.006852818 0.011436096 -0.0041127754 0.0056713666
-0.026578786 0.010177605 0.025249757 -0.011638447 0.015257945 0.025852928 -0.017399745 -0.0030608233
0.027284462 0.029659033 0.028464178 0.0025016465 0.013650704 0.0010033083 0.024966821 0.0025593173
00000000: c923 f33c cf76 bebc d372 f23c f0e6 cc3c
00000010: cef9 5ebc a197 823c 1e57 ac3c 5027 c83c
00000020: f16e ee3c c146 543b 04a0 e23c e4f1 883c
00000030: 79b3 37bc 25ad 8c3c 7790 a13c ea76 c53b
00000040: 21c5 3a3c 2120 b03c 4da4 bb3c 5f4e d23c
00000050: 4868 883c 5d2c 223c a5f7 503c 9579 903c
00000060: 3116 bc3c 46e2 893c f642 ad3c 20b5 e33c
00000070: 51fd 903c c11f 973c 01c1 b13c 7364 2abb
00000080: b609 e43c d6db eb3c 8f2f e53c 0fd3 303c
00000090: 7acc 983b 4c67 df3c 1536 e4bb 633e 6d3c
000000a0: a20e c4bb 77a7 7e3c 4325 033d cca3 e0bb
000000b0: 5362 df3c e7fe 953c 04c2 3c38 0d9c 04bd
000000c0: 2269 b83c d1c6 ca3c 8774 00bc c8e4 90bc
000000d0: 8ab1 b53b aac0 7abb 9aea 603c 8947 c63c
000000e0: 2960 9f3c 1ab5 663c f8ea b73c 461c 913c
000000f0: a962 c73c 1b13 c93c 222d eb3c 9329 cd3c
00000100: c08b f13c 7ec7 a23c 9672 73bc 3662 c03c
00000110: f390 433c 56b6 f13c 09b3 013d 877e 043c
00000120: 7b77 cd3c 1ba2 76bb 9a57 2d3c 1dc3 63bc
00000130: 6a91 dc3b 02a9 d1bc 7bc1 b93a 8f81 8abb
00000140: b14a 9bbc 9693 c13c 4f46 a93c af22 8f3b
00000150: 7a84 b3bc 8ded 9cbb 1a11 b43c 7b5b 063c
00000160: 9409 c0bc c77f 3b3b 59b9 f03c e2ca 813c
00000170: 7aa5 393c e830 e63c 8ae6 ce3c ac96 a93b
00000180: 83b7 9b3c c187 eb3c ee0a 283b eb4c 2bbc
00000190: 821c 033d e1af ae3b c2cb 1fbb 3553 cc3c
000001a0: 8506 22bc bda0 823c 923f ed3c f185 92bc
000001b0: 9b8d e03b 775e 3b3c 76c4 86bb dfd6 b93b
000001c0: c1bb d9bc f8bf 263c 94d8 ce3c 2faf 3ebc
000001d0: 76fc 793c 85c9 d33c e989 8ebc 1898 48bb
000001e0: aa83 df3c 80f7 f23c b52d e93c aaf2 233b
000001f0: 34a7 5f3c 7181 833a 3887 cc3c 38ba 273b

action_model._continuous_distribution.mu.weight f4 [1, 128]
-0.03790325 0.012448014 -0.04118853 -0.033315625 0.03240379 -0.011788855 0.044632286 0.033409543
-0.07108203 0.045435075 -0.03499692 -0.0154577205 0.023866905 -0.028307201 0.047942635 0.059835378
-0.015342071 -0.021640373 -0.030763391 0.04695926 0.026133263 0.03076781 0.024180185 -0.014983502
0.028679494 0.027944714 -0.023332816 -0.04246337 0.026921736 -0.013017187 -0.022128774 0.041520648
-0.05003816 -0.04617525 -0.03400256 0.05958951 -0.018592708 -0.022543151 0.008168988 0.046914063
0.012717432 0.038663745 -0.036701526 0.053591747 -0.026652334 0.04697007 -0.012541015 0.016222332
-0.023337312 -0.029014323 0.018821439 0.033089187 0.0169716 0.031388834 0.03592988 -0.029582547
0.034003902 0.050103623 0.059173208 -0.02286418 -0.049666643 0.04615045 -0.035770983 -0.027362287
-0.040038254 -0.022211054 0.02271453 -0.03601714 0.023140928 -0.03425453 -0.035513304 -0.020379625
-0.027089816 0.02157871 0.02444611 -0.004146111 -0.007678104 -0.008646868 0.056674037 0.0052790614
0.028965365 -0.035624705 -0.021733688 0.050495364 0.028535273 0.01186624 0.029841296 0.04001294
0.049842946 0.032288566 -0.041188136 0.039965525 0.041964896 -0.029994635 -0.030232172 0.02301986
-0.022677964 -0.033457447 0.039130226 0.04040884 -0.033771064 0.027811509 0.023131704 0.06486124
0.03858021 0.03347742 -0.02734807 0.048851985 0.03338688 -0.02533503 0.03310372 0.047932543
-0.008306631 0.033179153 -0.036711615 0.013611362 0.0363593 -0.029827863 0.025221698 -0.009319043
0.03318334 -0.04318436 -0.032191012 0.042905055 -0.016719634 0.022933451 -0.027783588 -0.011503653
00000000: 7040 1bbd c1f2 4b3c 4eb5 28bd f775 08bd
00000010: d6b9 043d 0b26 41bc 58d0 363d 72d8 083d
00000020: 7593 91bd 211a 3a3d ee58 0fbd 6142 7dbc
00000030: 8784 c33c 81e4 e7bc 7f5f 443d f115 753d
00000040: 4f5d 7bbc 2747 b1bc 8203 fcbc 5a58 403d
00000050: 6d15 d63c c60c fc3c 8615 c63c 5d7d 75bc
00000060: 42f1 ea3c 50ec e43c 7624 bfbc 12ee 2dbd
00000070: f98a dc3c 0a46 55bc 6747 b5bc 8e11 2a3d
00000080: d0f4 4cbd 4222 3dbd 4546 0bbd 2114 743d
00000090: bc4f 98bc 6aac b8bc 38d7 053c f628 403d
000000a0: c75c 503c e05d 1e3d 5754 16bd 0583 5b3d
000000b0: ff55 dabc b063 403d d478 4dbc b2e4 843c
000000c0: e42d bfbc 72af edbc 6b2f 9a3c 8788 073d
000000d0: 0608 8b3c 9491 003d 362b 133d 1957 f2bc
000000e0: ad47 0b3d 7539 4d3d 9b5f 723d a94d bbbc
000000f0: 406f 4bbd 4108 3d3d 9884 12bd e026 e0bc
00000100: 27ff 23bd f5f3 b5bc d213 ba3c b586 13bd
00000110: 0b92 bd3c 7a4e 0cbd 6676 11bd 2cf3 a6bc
00000120: 76eb ddbc d6c5 b03c 3543 c83c 1adc 87bb
00000130: 9b98 fbbb 98ab 0dbc 0923 683d fafb ac3b
00000140: c648 ed3c 36eb 11bd d90a b2bc 3ad4 4e3d
00000150: cec2 e93c 9e6a 423c bc75 f43c 9ce4 233d
00000160: 1e28 4c3d 0441 043d e4b4 28bd e4b2 233d
00000170: 62e3 2b3d 4fb7 f5bc 76a9 f7bc 2594 bc3c
00000180: 23c7 b9bc ad0a 09bd 0447 203d bd83 253d
00000190: 8753 0abd f6d4 e33c b37e bd3c f8d5 843d
000001a0: 4806 1e3d 9f1f 093d 0f09 e0bc 0519 483d
000001b0: aec0 083d 698b cfbc c497 073d ea54 443d
000001c0: 8918 08bc dde6 073d eb5e 16bd 3102 5f3c
000001d0: 7ded 143d 9059 f4bc bc9d ce3c e6ae 18bc
000001e0: 41eb 073d 15e2 30bd b9da 03bd 36bd 2f3d
000001f0: 9df7 88bc efde bb3c 689a e3bc d179 3cbc

action_model._discrete_distribution.branches.0.weight f4 [1, 128]
-0.0057518417 -0.0060647735 0.0042172573 -0.01365064 0.007484918 0.003322274 0.002642867 -0.01054323
-0.008355993 0.0008527484 0.0028323375 0.005531363 0.0064661726 -0.0038436272 -0.0017737966 0.0084194
0.0038559285 0.0045955963 0.0067029367 0.004360701 -0.0017837211 0.00014434253 0.007959153 0.002708167
-0.004187793 -0.0131134335 0.0023194961 0.00030708394 -0.015906079 0.0046980917 0.015641553 0.0065476485
-0.00746443 0.007032235 0.011672673 -0.0048076552 0.003734383 0.0065881 0.016890373 -0.0013804273
0.011587964 -0.0015849433 -0.007821543 0.0018493388 -0.0037738604 0.013074577 0.0013402288 -0.015158053
-0.015719188 0.002865883 -0.0029145065 -0.0087832315 -0.010287142 0.01989901 0.008851008 0.010896257
0.010783713 0.0025808713 0.0070478693 -0.013043198 0.012049058 -0.0026890954 -0.009140587 -0.002159509
-0.009170768 -0.01573177 0.012161794 -0.00016477928 0.0032261014 0.016396014 0.011467288 -0.0043744617
-0.0027478728 -0.017987305 -0.0070235506 -0.0032491244 -0.01823516 -0.0030767198 -0.005612777 -0.010670564
-0.0020426256 -0.008546961 -0.003045558 0.008590967 0.009791097 -0.0037725344 -0.0043117246 0.0046514543
0.013200692 0.016183443 -0.0078475205 -0.0064129615 -0.0066300333 0.0029388124 -0.0015144759 0.015680159
0.01166413 -0.009568887 0.0010704309 -0.002561706 0.002433305 -0.0014980558 0.0011428483 -0.003225293
0.015188898 -0.010283909 -0.0014437753 -0.0015478814 0.013539004 0.00084650406 0.0063770944 0.0017784483
-0.0018806066 0.0055099125 -0.00067968556 -0.0013324114 -0.0035163374 0.009628974 0.009295298 -0.0011465573
0.0037256868 0.0035247046 -0.009469255 0.018562058 0.019949287 -0.0036863808 -0.0099431565 -0.00050776935
00000000: f279 bcbb 02bb c6bb eb30 8a3b efa6 5fbc
00000010: 0b44 f53b 82ba 593b f333 2d3b 83bd 2cbc
00000020: 93e7 08bc fa8a 5f3a bd9e 393b 7040 b53b
00000030: 30e2 d33b 5de5 7bbb bd7e e8ba 86f1 093c
00000040: bfb3 7c3b a896 963b 4fa4 db3b 36e4 8e3b
00000050: c0cb e9ba a75a 1739 1b67 023c 817b 313b
00000060: c139 89bb bad9 56bc b002 183b 1c00 a139
00000070: 774d 82bc 73f2 993b b722 803c a88d d63b
00000080: 2d98 f4bb aa6e e63b bd3e 3f3c 8989 9dbb
00000090: 8dbc 743b fde0 d73b ae5d 8a3c 74ef b4ba
000000a0: 72db 3d3c dfbd cfba ee25 00bc 8365 f23a
000000b0: df52 77bb c036 563c 9eaa af3a 7b59 78bc
000000c0: 87c5 80bc 8ad1 3b3b 4e01 3fbb 8be7 0fbc
000000d0: 678b 28bc 4003 a33c d103 113c 3786 323c
000000e0: 2cae 303c d623 293b d0f1 e63b 23b3 55bc
000000f0: 6a69 453c 893b 30bb 67c2 15bc 8d86 0dbb
00000100: fd40 16bc eadf 80bc 4342 473c 9ac8 2cb9
00000110: 006d 533b ef50 863c 4be1 3b3c a557 8fbb
00000120: a815 34bb 1d5a 93bc d025 e6bb 43ef 54bb
00000130: e761 95bc cba2 49bb 63eb b7bb 97d3 2ebc
00000140: 92dd 05bb 8d08 0cbc fc97 47bb 21c1 0c3c
00000150: d66a 203c a03c 77bb 5e49 8dbb 3a6b 983b
00000160: b747 583c 2493 843c e392 00bc d223 d2bb
00000170: c040 d9bb 1799 403b 6181 c6ba ad73 803c
00000180: e81a 3f3c d2c6 1cbc b34d 8c3a 4be2 27bb
00000190: 1578 1f3b 695a c4ba a0cb 953a 705f 53bb
000001a0: dbda 783c d77d 28bc 0f3d bdba 48e2 caba
000001b0: b3d2 5d3c ede7 5d3a f2f6 d03b d31a e93a
000001c0: b07e f6ba 7f8c b43b ed2c 32ba 4fa4 aeba
000001d0: 5a72 66bb d8c2 1d3c 4e4b 183c 1448 96ba
000001e0: a72a 743b bbfe 663b ef24 1bbc 750f 983c
000001f0: b06c a33c 3597 71bb 9fe8 22bc d31b 05ba
